…
LoadGAN: Using options:
{'nc': 1, 'proportions': array([0.1, 0.1, 0.1, 0.1, 0.1, 0.1, 0.1, 0.1, 0.1, 0.1]), 'dataset': 'mnist', 'ngpu': 1, 'ngf': 64, 'workers': 1, 'netG': '', 'netDexpNum': -1, 'netD': '', 'nz': 20, 'netDinstance': -1, 'lr': 0.0002, 'beta1': 0.5, 'loadFromExperiment': -1, 'netP': '', 'netGinstance': -1, 'imageSize': 28, 'netPinstance': -1, 'manualSeed': None, 'ndf': 64, 'netGexpNum': -1, 'cuda': True, 'netPexpNum': -1, 'batchSize': 64}
LoadGAN: Generating random seed
LoadGAN: Using random seed 5322
LoadGAN: Loading netG
LoadGAN: netG structure:
LoadGAN: _netG(
  (main): Sequential(
    (0): ConvTranspose2d(20, 256, kernel_size=(4, 4), stride=(1, 1), bias=False)
    (1): BatchNorm2d(256, eps=1e-05, momentum=0.1, affine=True)
    (2): ReLU(inplace)
    (3): ConvTranspose2d(256, 128, kernel_size=(4, 4), stride=(2, 2), padding=(1, 1), bias=False)
    (4): BatchNorm2d(128, eps=1e-05, momentum=0.1, affine=True)
    (5): ReLU(inplace)
    (6): ConvTranspose2d(128, 64, kernel_size=(4, 4), stride=(2, 2), padding=(2, 2), bias=False)
    (7): BatchNorm2d(64, eps=1e-05, momentum=0.1, affine=True)
    (8): ReLU(inplace)
    (9): ConvTranspose2d(64, 1, kernel_size=(4, 4), stride=(2, 2), padding=(1, 1), bias=False)
    (10): Tanh()
  )
)
LoadGAN: Loading netD
LoadGAN: netD structure:
LoadGAN: _netD(
  (main): Sequential(
    (0): Conv2d(1, 64, kernel_size=(4, 4), stride=(2, 2), padding=(1, 1), bias=False)
    (1): BatchNorm2d(64, eps=1e-05, momentum=0.1, affine=True)
    (2): LeakyReLU(0.2, inplace)
    (3): Conv2d(64, 128, kernel_size=(4, 4), stride=(2, 2), padding=(1, 1), bias=False)
    (4): BatchNorm2d(128, eps=1e-05, momentum=0.1, affine=True)
    (5): LeakyReLU(0.2, inplace)
    (6): Conv2d(128, 256, kernel_size=(4, 4), stride=(2, 2), padding=(2, 2), bias=False)
    (7): BatchNorm2d(256, eps=1e-05, momentum=0.1, affine=True)
    (8): LeakyReLU(0.2, inplace)
    (9): Conv2d(256, 1, kernel_size=(4, 4), stride=(1, 1), bias=False)
    (10): Sigmoid()
  )
)
LoadGAN: Using cuda
TrainGAN: Beginning training
TrainGAN: ===Begin epoch 0
TrainGAN: [0/5][0/938] Loss_D: 1.3757 Loss_G: 1.8684 D(x): 0.5574 D(G(z)): 0.5320 / 0.1636
TrainGAN: [0/5][1/938] Loss_D: 1.1603 Loss_G: 2.0916 D(x): 0.8871 D(G(z)): 0.6317 / 0.1384
TrainGAN: [0/5][2/938] Loss_D: 0.8088 Loss_G: 2.7887 D(x): 0.9183 D(G(z)): 0.5027 / 0.0682
…
