…
LoadGAN: Getting dataset mnist
LoadGAN: Creating dataloader
TrainGAN: Getting model
LoadGAN: Using options:
{'ngf': 64, 'nc': 1, 'imageSize': 28, 'manualSeed': None, 'netG': '', 'netGinstance': -1, 'netDexpNum': -1, 'netD': '', 'nz': 20, 'dataset': 'mnist', 'netGexpNum': -1, 'netDinstance': -1, 'ngpu': 1, 'cuda': True, 'beta1': 0.5, 'lr': 0.0002, 'batchSize': 64, 'ndf': 64, 'workers': 2, 'proportions': array([0.1, 0.1, 0.1, 0.1, 0.1, 0.1, 0.1, 0.1, 0.1, 0.1])}
LoadGAN: Generating random seed
LoadGAN: Using random seed 2366
LoadGAN: Loading netG
LoadGAN: netG structure:
LoadGAN: _netG(
  (main): Sequential(
    (0): ConvTranspose2d(20, 256, kernel_size=(4, 4), stride=(1, 1), bias=False)
    (1): BatchNorm2d(256, eps=1e-05, momentum=0.1, affine=True)
    (2): ReLU(inplace)
    (3): ConvTranspose2d(256, 128, kernel_size=(4, 4), stride=(2, 2), padding=(1, 1), bias=False)
    (4): BatchNorm2d(128, eps=1e-05, momentum=0.1, affine=True)
    (5): ReLU(inplace)
    (6): ConvTranspose2d(128, 64, kernel_size=(4, 4), stride=(2, 2), padding=(2, 2), bias=False)
    (7): BatchNorm2d(64, eps=1e-05, momentum=0.1, affine=True)
    (8): ReLU(inplace)
    (9): ConvTranspose2d(64, 1, kernel_size=(4, 4), stride=(2, 2), padding=(1, 1), bias=False)
    (10): Tanh()
  )
)
LoadGAN: Loading netD
LoadGAN: netD structure:
LoadGAN: _netD(
  (main): Sequential(
    (0): Conv2d(1, 64, kernel_size=(4, 4), stride=(2, 2), padding=(1, 1), bias=False)
    (1): BatchNorm2d(64, eps=1e-05, momentum=0.1, affine=True)
    (2): LeakyReLU(0.2, inplace)
    (3): Conv2d(64, 128, kernel_size=(4, 4), stride=(2, 2), padding=(1, 1), bias=False)
    (4): BatchNorm2d(128, eps=1e-05, momentum=0.1, affine=True)
    (5): LeakyReLU(0.2, inplace)
    (6): Conv2d(128, 256, kernel_size=(4, 4), stride=(2, 2), padding=(2, 2), bias=False)
    (7): BatchNorm2d(256, eps=1e-05, momentum=0.1, affine=True)
    (8): LeakyReLU(0.2, inplace)
    (9): Conv2d(256, 1, kernel_size=(4, 4), stride=(1, 1), bias=False)
    (10): Sigmoid()
  )
)
LoadGAN: Using cuda
TrainGAN: Beginning training
TrainGAN: ===Begin epoch 0
=====
Starting experiment ganExp1
ID: 1, PID 0/1
07_31_2018_16:20:03
=====
TrainGAN: Getting dataloader
LoadGAN: Getting dataset mnist
LoadGAN: Creating dataloader
TrainGAN: Getting model
LoadGAN: Using options:
{'ngf': 64, 'nc': 1, 'imageSize': 28, 'manualSeed': None, 'netG': '', 'netGinstance': -1, 'netDexpNum': -1, 'netD': '', 'nz': 20, 'dataset': 'mnist', 'netGexpNum': -1, 'netDinstance': -1, 'ngpu': 1, 'cuda': True, 'beta1': 0.5, 'lr': 0.0002, 'batchSize': 64, 'ndf': 64, 'workers': 2, 'proportions': array([0.1, 0.1, 0.1, 0.1, 0.1, 0.1, 0.1, 0.1, 0.1, 0.1])}
LoadGAN: Generating random seed
LoadGAN: Using random seed 4751
LoadGAN: Loading netG
LoadGAN: netG structure:
LoadGAN: _netG(
  (main): Sequential(
    (0): ConvTranspose2d(20, 256, kernel_size=(4, 4), stride=(1, 1), bias=False)
    (1): BatchNorm2d(256, eps=1e-05, momentum=0.1, affine=True)
    (2): ReLU(inplace)
    (3): ConvTranspose2d(256, 128, kernel_size=(4, 4), stride=(2, 2), padding=(1, 1), bias=False)
    (4): BatchNorm2d(128, eps=1e-05, momentum=0.1, affine=True)
    (5): ReLU(inplace)
    (6): ConvTranspose2d(128, 64, kernel_size=(4, 4), stride=(2, 2), padding=(2, 2), bias=False)
    (7): BatchNorm2d(64, eps=1e-05, momentum=0.1, affine=True)
    (8): ReLU(inplace)
    (9): ConvTranspose2d(64, 1, kernel_size=(4, 4), stride=(2, 2), padding=(1, 1), bias=False)
    (10): Tanh()
  )
)
LoadGAN: Loading netD
LoadGAN: netD structure:
LoadGAN: _netD(
  (main): Sequential(
    (0): Conv2d(1, 64, kernel_size=(4, 4), stride=(2, 2), padding=(1, 1), bias=False)
    (1): BatchNorm2d(64, eps=1e-05, momentum=0.1, affine=True)
    (2): LeakyReLU(0.2, inplace)
    (3): Conv2d(64, 128, kernel_size=(4, 4), stride=(2, 2), padding=(1, 1), bias=False)
    (4): BatchNorm2d(128, eps=1e-05, momentum=0.1, affine=True)
    (5): LeakyReLU(0.2, inplace)
    (6): Conv2d(128, 256, kernel_size=(4, 4), stride=(2, 2), padding=(2, 2), bias=False)
    (7): BatchNorm2d(256, eps=1e-05, momentum=0.1, affine=True)
    (8): LeakyReLU(0.2, inplace)
    (9): Conv2d(256, 1, kernel_size=(4, 4), stride=(1, 1), bias=False)
    (10): Sigmoid()
  )
)
LoadGAN: Using cuda
TrainGAN: Beginning training
TrainGAN: ===Begin epoch 0
=====
Starting experiment ganExp1
ID: 1, PID 0/1
07_31_2018_16:21:44
=====
TrainGAN: Getting dataloader
LoadGAN: Getting dataset mnist
LoadGAN: Creating dataloader
TrainGAN: Getting model
LoadGAN: Using options:
{'ngf': 64, 'nc': 1, 'imageSize': 28, 'manualSeed': None, 'netG': '', 'netGinstance': -1, 'netDexpNum': -1, 'netD': '', 'nz': 20, 'dataset': 'mnist', 'netGexpNum': -1, 'netDinstance': -1, 'ngpu': 1, 'cuda': True, 'beta1': 0.5, 'lr': 0.0002, 'batchSize': 64, 'ndf': 64, 'workers': 2, 'proportions': array([0.1, 0.1, 0.1, 0.1, 0.1, 0.1, 0.1, 0.1, 0.1, 0.1])}
LoadGAN: Generating random seed
LoadGAN: Using random seed 3292
LoadGAN: Loading netG
LoadGAN: netG structure:
LoadGAN: _netG(
  (main): Sequential(
    (0): ConvTranspose2d(20, 256, kernel_size=(4, 4), stride=(1, 1), bias=False)
    (1): BatchNorm2d(256, eps=1e-05, momentum=0.1, affine=True)
    (2): ReLU(inplace)
    (3): ConvTranspose2d(256, 128, kernel_size=(4, 4), stride=(2, 2), padding=(1, 1), bias=False)
    (4): BatchNorm2d(128, eps=1e-05, momentum=0.1, affine=True)
    (5): ReLU(inplace)
    (6): ConvTranspose2d(128, 64, kernel_size=(4, 4), stride=(2, 2), padding=(2, 2), bias=False)
    (7): BatchNorm2d(64, eps=1e-05, momentum=0.1, affine=True)
    (8): ReLU(inplace)
    (9): ConvTranspose2d(64, 1, kernel_size=(4, 4), stride=(2, 2), padding=(1, 1), bias=False)
    (10): Tanh()
  )
)
LoadGAN: Loading netD
LoadGAN: netD structure:
LoadGAN: _netD(
  (main): Sequential(
    (0): Conv2d(1, 64, kernel_size=(4, 4), stride=(2, 2), padding=(1, 1), bias=False)
    (1): BatchNorm2d(64, eps=1e-05, momentum=0.1, affine=True)
    (2): LeakyReLU(0.2, inplace)
    (3): Conv2d(64, 128, kernel_size=(4, 4), stride=(2, 2), padding=(1, 1), bias=False)
    (4): BatchNorm2d(128, eps=1e-05, momentum=0.1, affine=True)
    (5): LeakyReLU(0.2, inplace)
    (6): Conv2d(128, 256, kernel_size=(4, 4), stride=(2, 2), padding=(2, 2), bias=False)
    (7): BatchNorm2d(256, eps=1e-05, momentum=0.1, affine=True)
    (8): LeakyReLU(0.2, inplace)
    (9): Conv2d(256, 1, kernel_size=(4, 4), stride=(1, 1), bias=False)
    (10): Sigmoid()
  )
)
LoadGAN: Using cuda
TrainGAN: Beginning training
TrainGAN: ===Begin epoch 0
=====
Starting experiment ganExp1
ID: 1, PID 0/1
07_31_2018_16:22:43
=====
TrainGAN: Getting dataloader
LoadGAN: Getting dataset mnist
LoadGAN: Creating dataloader
TrainGAN: Getting model
LoadGAN: Using options:
{'ngf': 64, 'nc': 1, 'imageSize': 28, 'manualSeed': None, 'netG': '', 'netGinstance': -1, 'netDexpNum': -1, 'netD': '', 'nz': 20, 'dataset': 'mnist', 'netGexpNum': -1, 'netDinstance': -1, 'ngpu': 1, 'cuda': True, 'beta1': 0.5, 'lr': 0.0002, 'batchSize': 64, 'ndf': 64, 'workers': 2, 'proportions': array([0.1, 0.1, 0.1, 0.1, 0.1, 0.1, 0.1, 0.1, 0.1, 0.1])}
LoadGAN: Generating random seed
LoadGAN: Using random seed 3667
LoadGAN: Loading netG
LoadGAN: netG structure:
LoadGAN: _netG(
  (main): Sequential(
    (0): ConvTranspose2d(20, 256, kernel_size=(4, 4), stride=(1, 1), bias=False)
    (1): BatchNorm2d(256, eps=1e-05, momentum=0.1, affine=True)
    (2): ReLU(inplace)
    (3): ConvTranspose2d(256, 128, kernel_size=(4, 4), stride=(2, 2), padding=(1, 1), bias=False)
    (4): BatchNorm2d(128, eps=1e-05, momentum=0.1, affine=True)
    (5): ReLU(inplace)
    (6): ConvTranspose2d(128, 64, kernel_size=(4, 4), stride=(2, 2), padding=(2, 2), bias=False)
    (7): BatchNorm2d(64, eps=1e-05, momentum=0.1, affine=True)
    (8): ReLU(inplace)
    (9): ConvTranspose2d(64, 1, kernel_size=(4, 4), stride=(2, 2), padding=(1, 1), bias=False)
    (10): Tanh()
  )
)
LoadGAN: Loading netD
LoadGAN: netD structure:
LoadGAN: _netD(
  (main): Sequential(
    (0): Conv2d(1, 64, kernel_size=(4, 4), stride=(2, 2), padding=(1, 1), bias=False)
    (1): BatchNorm2d(64, eps=1e-05, momentum=0.1, affine=True)
    (2): LeakyReLU(0.2, inplace)
    (3): Conv2d(64, 128, kernel_size=(4, 4), stride=(2, 2), padding=(1, 1), bias=False)
    (4): BatchNorm2d(128, eps=1e-05, momentum=0.1, affine=True)
    (5): LeakyReLU(0.2, inplace)
    (6): Conv2d(128, 256, kernel_size=(4, 4), stride=(2, 2), padding=(2, 2), bias=False)
    (7): BatchNorm2d(256, eps=1e-05, momentum=0.1, affine=True)
    (8): LeakyReLU(0.2, inplace)
    (9): Conv2d(256, 1, kernel_size=(4, 4), stride=(1, 1), bias=False)
    (10): Sigmoid()
  )
)
LoadGAN: Using cuda
TrainGAN: Beginning training
TrainGAN: ===Begin epoch 0
TrainGAN: [0/1][0/938] Loss_D: 1.5828 Loss_G: 1.4178 D(x): 0.4354 D(G(z)): 0.5101 / 0.2498
TrainGAN: [0/1][1/938] Loss_D: 1.4367 Loss_G: 1.5138 D(x): 0.8952 D(G(z)): 0.7205 / 0.2298
TrainGAN: [0/1][2/938] Loss_D: 1.0315 Loss_G: 2.2806 D(x): 0.9015 D(G(z)): 0.5919 / 0.1130
…
LoadGAN: Getting dataset mnist
LoadGAN: Creating dataloader
TrainGAN: Getting model
LoadGAN: Using options:
{'ngf': 64, 'nc': 1, 'imageSize': 28, 'manualSeed': None, 'netG': '', 'netGinstance': -1, 'netDexpNum': -1, 'netD': '', 'nz': 20, 'dataset': 'mnist', 'netGexpNum': -1, 'netDinstance': -1, 'ngpu': 1, 'cuda': True, 'beta1': 0.5, 'lr': 0.0002, 'batchSize': 64, 'ndf': 64, 'workers': 2, 'proportions': array([0.1, 0.1, 0.1, 0.1, 0.1, 0.1, 0.1, 0.1, 0.1, 0.1])}
LoadGAN: Generating random seed
LoadGAN: Using random seed 6037
LoadGAN: Loading netG
LoadGAN: netG structure:
LoadGAN: _netG(
  (main): Sequential(
    (0): ConvTranspose2d(20, 256, kernel_size=(4, 4), stride=(1, 1), bias=False)
    (1): BatchNorm2d(256, eps=1e-05, momentum=0.1, affine=True)
    (2): ReLU(inplace)
    (3): ConvTranspose2d(256, 128, kernel_size=(4, 4), stride=(2, 2), padding=(1, 1), bias=False)
    (4): BatchNorm2d(128, eps=1e-05, momentum=0.1, affine=True)
    (5): ReLU(inplace)
    (6): ConvTranspose2d(128, 64, kernel_size=(4, 4), stride=(2, 2), padding=(2, 2), bias=False)
    (7): BatchNorm2d(64, eps=1e-05, momentum=0.1, affine=True)
    (8): ReLU(inplace)
    (9): ConvTranspose2d(64, 1, kernel_size=(4, 4), stride=(2, 2), padding=(1, 1), bias=False)
    (10): Tanh()
  )
)
LoadGAN: Loading netD
LoadGAN: netD structure:
LoadGAN: _netD(
  (main): Sequential(
    (0): Conv2d(1, 64, kernel_size=(4, 4), stride=(2, 2), padding=(1, 1), bias=False)
    (1): BatchNorm2d(64, eps=1e-05, momentum=0.1, affine=True)
    (2): LeakyReLU(0.2, inplace)
    (3): Conv2d(64, 128, kernel_size=(4, 4), stride=(2, 2), padding=(1, 1), bias=False)
    (4): BatchNorm2d(128, eps=1e-05, momentum=0.1, affine=True)
    (5): LeakyReLU(0.2, inplace)
    (6): Conv2d(128, 256, kernel_size=(4, 4), stride=(2, 2), padding=(2, 2), bias=False)
    (7): BatchNorm2d(256, eps=1e-05, momentum=0.1, affine=True)
    (8): LeakyReLU(0.2, inplace)
    (9): Conv2d(256, 1, kernel_size=(4, 4), stride=(1, 1), bias=False)
    (10): Sigmoid()
  )
)
LoadGAN: Using cuda
TrainGAN: Beginning training
TrainGAN: ===Begin epoch 0
TrainGAN: [0/1][0/938] Loss_D: 1.4856 Loss_G: 1.4358 D(x): 0.4064 D(G(z)): 0.4231 / 0.2473
TrainGAN: [0/1][1/938] Loss_D: 1.2983 Loss_G: 1.5246 D(x): 0.9076 D(G(z)): 0.6823 / 0.2341
TrainGAN: [0/1][2/938] Loss_D: 1.0158 Loss_G: 2.2018 D(x): 0.9289 D(G(z)): 0.5961 / 0.1188
…
